…
36m', decay_epoch=0, df=2, downsample=1, dropout=0.25, epochs=50, evaluate='', gloss_factorblr=1, gloss_factord2d=1, gloss_factord3d=6, gloss_factordiff=3, gloss_factordiv_ba=0.0, gloss_factordiv_rt=0.0, gloss_factorfeedback_ba=0.1, gloss_factorfeedback_rt=0.01, hardratio_ba=5, hardratio_ba_s=3, hardratio_rt=17, hardratio_rt_s=17, hardratio_std_ba=2, hardratio_std_rt=15, keypoints='gt', lr_d=0.0001, lr_g=0.0001, lr_p=0.0001, max_norm=True, note='poseaug', num_workers=2, posenet_name='mlp', pretrain=True, random_seed=0, resume='', s1only=False, snapshot=2, stages=2, warmup=2)
LinearModel(
  (w1): Linear(in_features=32, out_features=1024, bias=True)
  (batch_norm1): BatchNorm1d(1024, eps=1e-05, momentum=0.1, affine=True, track_running_stats=True)
  (linear_stages): ModuleList(
    (0): Linear(
      (relu): ReLU(inplace)
      (dropout): Dropout(p=0.25)
      (w1): Linear(in_features=1024, out_features=1024, bias=True)
      (batch_norm1): BatchNorm1d(1024, eps=1e-05, momentum=0.1, affine=True, track_running_stats=True)
      (w2): Linear(in_features=1024, out_features=1024, bias=True)
      (batch_norm2): BatchNorm1d(1024, eps=1e-05, momentum=0.1, affine=True, track_running_stats=True)
    )
    (1): Linear(
      (relu): ReLU(inplace)
      (dropout): Dropout(p=0.25)
      (w1): Linear(in_features=1024, out_features=1024, bias=True)
      (batch_norm1): BatchNorm1d(1024, eps=1e-05, momentum=0.1, affine=True, track_running_stats=True)
      (w2): Linear(in_features=1024, out_features=1024, bias=True)
      (batch_norm2): BatchNorm1d(1024, eps=1e-05, momentum=0.1, affine=True, track_running_stats=True)
    )
  )
  (w2): Linear(in_features=1024, out_features=45, bias=True)
  (relu): ReLU(inplace)
  (dropout): Dropout(p=0.25)
)
epoch	lr	error_h36m_p1	error_h36m_p2	error_3dhp_p1	error_3dhp_p2	
1.000000	0.000100	41.410263	31.804835	83.097164	62.321725	
==> Saving checkpoint at epoch '1', with dhp_p1 83.09716408002006
==> Saving checkpoint at epoch '1', with s911p1 41.41026289563212
2.000000	0.000098	41.410263	31.804835	83.097164	62.321725	
…
